data.pth (torch, 4991 bytes, 6 tensors)

l1.weight f4 [8, 54]
-0.08860077 -0.020716544 -0.41017506 0.046942223 0.18484005 -0.31798774 -0.1725194 -0.41375765
-0.30348352 -0.3964471 0.09201925 0.48226178 0.57825845 0.3794636 -0.036582917 0.23518564
0.32682917 -0.31827646 0.5604074 0.49130595 -0.16232757 0.24753208 0.26728666 0.45248297
0.21016325 -0.025919266 0.84277797 -0.21749474 0.44274235 -0.23067622 -0.114926636 0.45657063
0.008254998 -0.4099951 -0.11157188 0.23176698 0.38834065 -0.24577653 -0.034541138 -0.23041108
-0.09680804 0.64150053 0.44927073 0.06438975 0.26968718 -0.017450025 -0.36411119 -0.067146055
0.35678726 0.92373675 0.3551193 0.5456709 -0.09111163 0.046331033 0.1468046 0.45057064
0.13326992 0.3809177 0.22031742 -0.4666804 0.0023213027 0.11111116 -0.046051797 0.029849807
0.4893888 0.37953088 0.56650966 0.61783296 0.45225278 0.33000782 0.58483297 -0.46728805
0.1734729 0.6002725 -0.06533091 0.79370385 0.820485 0.56740063 0.15313551 0.23767611
0.37657866 0.4974925 0.15728761 0.43898708 -0.42072254 0.6291278 -0.084076636 0.055345137
0.39175844 0.43296817 0.26456776 -0.03758218 -0.10329145 -0.15785861 -0.22540398 0.21337731
0.55068624 0.27893186 0.21967044 0.36881134 -0.0036077148 0.19781464 0.41551903 0.2462824
0.48704585 0.10762124 0.016230626 0.17892388 0.031021003 0.26619965 -0.12430208 0.31948915
0.1520995 -0.46342793 -0.2539306 -0.31733805 -0.34679696 -0.3643305 0.61491126 0.4008601
0.41787308 0.60363066 0.3010218 0.4910855 0.44580686 -0.44405472 0.0877697 0.6457031
0.23616318 0.80654263 0.7055126 0.8272542 0.30442896 0.46650413 0.37942308 0.3753532
0.06954911 0.102177605 -0.22128135 0.47747767 -0.0748774 -0.24114229 0.4551201 0.3540561
0.024617944 -0.15392022 -0.2761279 -0.06865884 -0.12751216 0.25810507 0.42818886 0.37701133
0.2595243 0.50524807 -0.007912704 0.12292172 0.3900158 0.22377655 0.44123057 0.12000484
-0.19422457 -0.1400161 0.58123606 0.48244652 -0.015665786 -0.21946454 -0.382481 -0.28068632
0.1022536 -0.12685797 0.14944416 0.016521396 -0.2210651 0.3779252 0.06364288 0.21482518
0.26929924 0.30755574 -0.15268736 -0.279951 -0.36195865 -0.21691406 0.51463705 -0.36847878
-0.3596687 0.12356045 0.12934412 -0.09089306 -0.16329491 0.45736948 0.015257039 0.29966888
-0.22957835 0.41266453 0.26508412 0.059971564 0.44039577 0.28727663 0.11818368 0.07189517
0.21755321 0.1772188 -0.11524046 -0.3475708 0.3022167 0.3438699 0.3027625 0.34233603
1.0840993 0.54332846 -0.11484642 -0.42137673 0.44771993 -0.24416336 0.19051923 0.26945993
-0.25932246 -0.32594106 0.28329813 0.32974356 0.3802636 0.30583587 0.38697648 0.1700863
0.30516544 0.08270335 0.5459581 0.20432712 0.5286096 0.29827273 -0.24589472 0.26405326
0.42195752 0.24380581 0.30990526 0.5504319 -0.26093698 0.6729808 0.5716893 0.47946978
0.30936295 0.33761525 0.40434104 -0.4290419 0.4037932 -0.39332736 0.08449118 0.39069575
-0.13089094 0.18971841 -0.14185186 0.13779655 0.2920843 0.17758472 0.45273048 0.48280716
00000000: 5274 b5bd beb5 a9bc 7702 d2be 7d46 403d
00000010: b646 3d3e 4acf a2be eda8 30be 0bd8 d3be
00000020: 3162 9bbe 1dfb cabe 9774 bc3d 04eb f63e
00000030: bf08 143f 0e49 c23e f8d7 15bd 81d4 703e
00000040: 2756 a73e 22f5 a2be dc76 0f3f 748c fb3e
00000050: 3339 26be 0d79 7d3e ccd9 883e d9ab e73e
00000060: 0935 573e a454 d4bc 4cc0 573f f1b6 5ebe
00000070: 20af e23e 6336 6cbe a85e ebbd a0c3 e93e
00000080: f93f 073c e1ea d1be cc7f e4bd 5354 6d3e
00000090: 96d4 c63e d8ac 7bbe 027b 0dbd e2f0 6bbe
000000a0: 4b43 c6bd 6139 243f d006 e63e c6de 833d
000000b0: 7014 8a3e 5bf3 8ebc c86c babe df83 89bd
000000c0: d2ac b63e 037a 6c3f 32d2 b53e 17b1 0b3f
000000d0: bc98 babd 9cc5 3d3d f253 163e 32b1 e63e
000000e0: e977 083e a507 c33e e49a 613e bcf0 eebe
000000f0: ff20 183b 3f8e e33d cfa0 3cbd 9587 f43c
00000100: 2b91 fa3e df51 c23e c706 113f 4d2a 1e3f
00000110: ad8d e73e c9f6 a83e 9db7 153f 6140 efbe
00000120: e1a2 313e 75ab 193f 36cc 85bd 2d30 4b3f
00000130: 4e0b 523f 2b41 113f 8ecf 1c3e 5e61 733e
00000140: ebce c03e 56b7 fe3e 0110 213e eac2 e03e
00000150: f268 d7be 850e 213f 5f30 acbd 95b1 623d
00000160: 9094 c83e 01ae dd3e 6d75 873e c6ef 19bd
00000170: 788a d3bd b0a5 21be 4dd0 66be 957f 5a3e
00000180: c6f9 0c3f 28d0 8e3e 4af1 603e d7d4 bc3e
00000190: 696f 6cbb ec8f 4a3e e9be d43e 7431 7c3e
000001a0: 135e f93e 8668 dc3d 17f6 843c d237 373e
000001b0: c21f fe3c 524b 883e 1792 febd 1594 a33e
000001c0: f9bf 1b3e 6d46 edbe 3103 82be 227a a2be
000001d0: 5f8f b1be 8789 babe d36a 1d3f 893d cd3e
000001e0: 76f3 d53e 8a87 1a3f 881f 9a3e 8f6f fb3e
000001f0: cc40 e43e 245b e3be 9ac0 b33d cc4c 253f
00000200: c3d4 713e 9479 4e3f 799c 343f eec6 533f
00000210: 1dde 9b3e a1d9 ee3e be43 c23e 4b2e c03e
00000220: c46f 8e3d 7e42 d13d 9497 62be f477 f43e
00000230: 5359 99bd 01ee 76be 8005 e93e d746 b53e
00000240: 92ab c93c 439d 1dbe a360 8dbe 029d 8cbd
00000250: 8c92 02be 5926 843e 923b db3e a107 c13e
00000260: 5ee0 843e f057 013f 49a4 01bc 62be fb3d
00000270: 27b0 c73e ae25 653e f9e8 e13e 19c5 f53d
00000280: cee2 46be 6160 0fbe e3cb 143f 3b03 f73e
00000290: 8955 80bc 50bb 60be 8dd4 c3be 1eb6 8fbe
000002a0: 566a d13d 0ee7 01be e407 193e e157 873c
000002b0: e45e 62be 697f c13e 3357 823d 22fb 5b3e
000002c0: 97e1 893e f277 9d3e 135a 1cbe bd55 8fbe
000002d0: a552 b9be b81e 5ebe 41bf 033f 40a9 bcbe
000002e0: 7f26 b8be 430d fd3d c972 043e 2426 babd
000002f0: c836 27be 552c ea3e a9f8 793c 336e 993e
00000300: 9616 6bbe c448 d33e 1bb9 873e bea4 753d
00000310: 8e7b e13e ec15 933e 490a f23d c63d 933d
00000320: 45c6 5e3e d878 353e 3103 ecbd cdf4 b1be
00000330: 26bc 9a3e b70f b03e b003 9b3e ab46 af3e
00000340: c4c3 8a3f 9317 0b3f 9a34 ebbd b1be d7be
00000350: 8c3b e53e f605 7abe 7917 433e a7f6 893e
00000360: eac5 84be bfe1 a6be 740c 913e 26d4 a83e
00000370: e9b1 c23e 8596 9c3e c821 c63e 1a2b 2e3e
00000380: a53e 9c3e 6060 a93d e9c3 0b3f 213b 513e
00000390: f552 073f 34b7 983e d3cb 7bbe fd31 873e
000003a0: d10a d83e 3ba8 793e e7ab 9e3e 1be9 0c3f
000003b0: 8899 85be 7848 2c3f 3b5a 123f 107d f53e
000003c0: d264 9e3e e8db ac3e ca05 cf3e 61ab dbbe
000003d0: fbbd ce3e 3462 c9be b609 ad3d 4609 c83e
000003e0: 4608 06be 8b45 423e 9d41 11be 8a1a 0d3e
000003f0: 138c 953e c5d8 353e 4acc e73e 8032 f73e

l1.bias f4 [8]
0.31800276 0.46700844 0.4887201 0.4354018 0.7567032 1.2298312 0.43013048 0.67064846
00000000: 42d1 a23e bb1b ef3e 8539 fa3e fcec de3e
00000010: 4db7 413f 1c6b 9d3f 103a dc3e 9eaf 2b3f

l2.weight f4 [8, 8]
1.3998778 1.459535 1.3623303 -0.5664336 1.4107952 -1.0486809 0.36706808 0.92687
-0.6378608 0.39511064 0.09295626 1.3730377 0.10247844 -0.4634323 0.03662536 0.4488597
-0.11155263 -0.26516622 0.10856172 0.19695985 -0.1111972 0.07247409 0.22337541 -0.15300384
0.3163091 0.6343477 1.172355 0.5709461 0.48439267 1.2550938 -0.7787354 -0.49149737
-0.49048615 0.37473658 0.30118772 0.6156174 -0.805306 -0.20023392 -0.028115882 0.7491204
-0.020002604 -0.34088644 -0.1803756 -0.27213588 -0.003932059 0.09151584 -0.106474906 -0.18369552
-0.68309754 1.0114757 1.0547388 1.1485635 -0.61270636 0.37263677 -1.056708 1.1623402
-0.8936764 -0.10854848 -0.2551663 -0.35752624 1.2139636 1.6606284 0.77847266 0.8909966
00000000: 322f b33f 0bd2 ba3f d760 ae3f cb01 11bf
00000010: f094 b43f 2d3b 86bf 59f0 bb3e 5a47 6d3f
00000020: d84a 23bf f14b ca3e da5f be3d b3bf af3f
00000030: 37e0 d13d 0047 edbe 7904 163d f0d0 e53e
00000040: b575 e4bd dec3 87be 9b55 de3d d8af 493e
00000050: 5cbb e3bd 4c6d 943d 86bc 643e 0aad 1cbe
00000060: 44f3 a13e 9c64 223f bb0f 963f 8629 123f
00000070: 5102 f83e eaa6 a03f 345b 47bf 8ba5 fbbe
00000080: 0021 fbbe 79dd bf3e 4735 9a3e 1a99 1d3f
00000090: 8928 4ebf 1f0a 4dbe 4753 e6bc 5bc6 3f3f
000000a0: 80dc a3bc ab88 aebe 62b4 38be 6555 8bbe
000000b0: 80d8 80bb a86c bb3d 840f dabd ae1a 3cbe
000000c0: 7bdf 2ebf 0978 813f ae01 873f 2104 933f
000000d0: 53da 1cbf 3fca be3e 3542 87bf 90c7 943f
000000e0: fac7 64bf aa4e debd 28a5 82be ae0d b7be
000000f0: 2963 9b3f 798f d43f fc49 473f 5a18 643f

l2.bias f4 [8]
0.26242507 -0.25893104 -0.37180108 0.35898146 -0.13092482 -0.22166827 0.33105594 0.88719106
00000000: 945c 863e 9c92 84be b65c bebe 6bcc b73e
00000010: 2811 06be 02fd 62be 2a80 a93e f41e 633f

l3.weight f4 [7, 8]
0.422122 0.16056867 -0.15204549 0.5038956 -0.7338071 -0.22388287 -0.11331869 -1.4328403
-0.02297953 0.50365824 -0.07839295 -0.22076719 0.7429104 -0.30160916 0.5392056 -0.9630059
-1.2190444 -1.0550375 -0.32831544 0.6997507 -0.5563781 0.058680058 -1.3601342 0.92041945
0.090727985 -1.4645008 -0.32527584 0.3572623 -0.8708337 0.30317768 0.25952265 0.16580205
0.90063024 -1.2805363 -0.07289481 -0.5793912 -0.6353497 -0.13119248 -1.2331251 -0.21826962
0.28596294 0.65688515 0.25664762 -1.5711753 -0.03451015 0.14755699 -0.29073682 0.50314146
-1.5406106 0.3573816 -0.26309103 0.20396875 0.18661895 0.0018455684 0.8486077 0.12797183
00000000: 6020 d83e 1d6c 243e d0b1 1bbe 4dff 003f
00000010: c8da 3bbf 8d41 65be a113 e8bd 5067 b7bf
00000020: 913f bcbc bfef 003f 7c8c a0bd cb10 62be
00000030: 602f 3e3f 846c 9abe 6109 0a3f 8e87 76bf
00000040: a609 9cbf 780b 87bf f618 a8be dd22 333f
00000050: cc6e 0ebf 805a 703d e118 aebf 9ca0 6b3f
00000060: 98cf b93d c374 bbbf 8e8a a6be 16eb b63e
00000070: f5ee 5ebf 1b3a 9b3e 27e0 843e 03c8 293e
00000080: b48f 663f 9de8 a3bf e049 95bd fb52 14bf
00000090: 47a6 22bf 5257 06be 0bd7 9dbf 1282 5fbe
000000a0: bc69 923e a029 283f 5167 833e 461c c9bf
000000b0: 845a 0dbd 2e19 173e 75db 94be e1cd 003f
000000c0: ba32 c5bf b9fa b63e deb3 86be 2fdd 503e
000000d0: 0a19 3f3e 00e7 f13a 5b3e 593f 0c0b 033e

l3.bias f4 [7]
-0.022563819 -0.4335075 0.2327259 -0.069176555 -0.2319667 -0.06289999 -0.28313822
00000000: c2d7 b8bc b2f4 ddbe b34f 6e3e 70ac 8dbd
00000010: ae88 6dbe b6d1 80bd 7ef7 90be
