chatbot/data.pth (torch, 4991 bytes, 6 tensors)

l1.weight f4 [8, 54]
00000000: b48f f73e 4320 5ebc a225 38be 2eaa 003f
00000010: 42e7 753e 51fd dcbe b1a8 85be 5cfb 5ebe
00000020: 9349 c2be 0773 6fbe fdb2 323f 7903 023f
00000030: b9e2 17bd 6c97 113f 6f4b 3cbe 80c3 e13e
00000040: 8cfa f53e 3d04 ddbe 439b dd3e 001b 443f
00000050: 6d30 f33e a141 583f 0719 1c3f db7f 203f
00000060: 1378 043f baca cf3e 24ab 2c3f a4a8 77be
00000070: 76b4 573e 001d 81be 7ff9 5abe ce08 cb3e
00000080: 5624 c03e cda1 a7be 417a 7dbd 84f4 de3e
00000090: 9a00 dc3d 167a cfbe 1fab 9fbe 9836 3fbe
000000a0: ae35 a9be 7762 263f 331b b73e 1a2d 68bd
000000b0: df3e f13e 47f1 04be 63ea 363f 20eb c93e
000000c0: fdea da3e 51bc 253f 46f6 2c3f 6045 a93e
000000d0: 64ab 14be 1138 e73d c4b4 213f e627 1c3e
000000e0: 36aa 5abe c951 92be 553e 02bf 07fd 353f
000000f0: 9e0b 21be aba9 5abe 8a79 80be 9523 7fbe
00000100: 5f61 6fbe 0b44 f5bd dc32 b7be 00b4 cdbd
00000110: 5708 46bd da53 c2bd 584e 05be 8ae3 033f
00000120: 479a 713e d67c e8be 0478 173f 2e15 f4be
00000130: 17fb aebe bbde 23be 5e0c a3bc d07b 07be
00000140: b14a cb3e 9e3d 74be 5078 bc3e 7645 d5be
00000150: 2845 ba3e a5ae 253d 6519 843e f37f 88be
00000160: 5b72 8dbe 34b6 c43b 3e3b 593e a116 cdbd
00000170: 6763 f5bd 378d 35bd b943 bb3e af35 ca3e
00000180: ba2d b33d f1c4 9ebc 48fd 4dbd 9465 41be
00000190: b20f 703f 39d2 e93e dafe 9a3d e47c 723e
000001a0: 2041 5abd e799 a33e f633 10be 5b91 a73e
000001b0: d9a2 3fbe 7956 01bf 5435 d83e c765 ca3e
000001c0: f41f f93e 1cde c13e b40e fa3e bfc2 bd3e
000001d0: 4f62 f63e 3f43 703e add3 ea3e 1f44 a4bd
000001e0: b750 353e 6110 70be d9bb bebe 1d5b 28be
000001f0: 1f5b f63e 5409 d13e 4276 fe3d e48a 1c3f
00000200: f143 a1bd bdde 3c3f e1b7 2d3f e70e f13d
00000210: 7b22 3b3e 3b6e cc3e 6b23 a33e ff0e 06bf
00000220: 95fc 6d3e aa28 1cbf 1a5d 8f3e aed5 82bd
00000230: 24ae 73bd c8bf a53e 3b68 cabd 55de 89be
00000240: 82d1 b33d 7fdc 003f 55a2 f63e 800b b93e
00000250: 825c 7e3e 090d bd3d 7ded 54be c2b8 a4be
00000260: 82a5 583e 1ef0 77be fcc2 36bf 65a1 5ebe
00000270: 757d 9c3e b687 553e 88d9 46be 361b 0e3e
00000280: 9c5a f83e f5bf d03e 392e 28be aeec 493f
00000290: 6428 d0be 849a c33e 68d1 ec3e a72c 1fbf
000002a0: 62a9 85be b2b2 37be 7a03 e1be 76e7 fcbd
000002b0: 7a39 063f bbea 313d edef 623e 58ab 96bd
000002c0: 669a 283f 07de 163e 662f 003f 7d37 17bf
000002d0: 7c4d 35be 362c 063f 14ce 70be d9dc f93e
000002e0: e60c 153f 0b05 c33e e959 963c f7dd 8d3e
000002f0: 82eb c5be 21cf 6e3f be3e 40be e8b9 183f
00000300: ea8b d4be cf2d 18bd 6675 2bbe 6566 58be
00000310: 82e7 3c3f 566c 8ebd 9041 d9be d6d0 fabe
00000320: c92a 5fbd 0df6 25be 1d4a 8cbe 5583 ddbe
00000330: 1ac2 ab3d 2279 323f 4574 96bd 00c4 6c3f
00000340: 13aa f1be 3e28 0abe 2e14 b63e 4e3e f5be
00000350: 6190 373e fdc7 b1be ccaa b9bd 6b1f 8a3d
00000360: b175 193f ea48 773e f1ce f0be c09d 92be
00000370: 912b 043e a5ed 18bf fb6c bbbd 466c 46be
00000380: fa5b f3be 9f17 80be ed89 6c3d 18e8 ccbd
00000390: 3d60 613e 2d1d 993d 7f9b d7bd 934a 3bbd
000003a0: a11b 83bd 4d55 18bf 350a ff3e b388 223e
000003b0: 94b4 033f 96c9 db3d 26f9 8a3d 58c1 25be
000003c0: 1ef2 77be b39f d2bd 2bba 1b3f d0c2 36be
000003d0: 15e9 fa3e ca45 f1be 5f19 d7be 92c1 0fbe
000003e0: e79e f83e f16e aabe e449 023e 376c 8dbe
000003f0: f909 e73e 44c6 a7be 7bbc 033d 966d 53be
0.48351824 -0.0135574965 -0.17983106 0.50259674 0.24013999 -0.43162015 -0.26105264 -0.21775573
-0.37946758 -0.23383723 0.69804364 0.5078655 -0.037081454 0.56871676 -0.1838815 0.44094467
0.48042715 -0.43167296 0.43282518 0.766037 0.47497883 0.8447514 0.6097569 0.6269509
0.5174572 0.40584356 0.6744864 -0.24185425 0.21064934 -0.25217438 -0.21384238 0.39655155
0.37527722 -0.32740632 -0.06188417 0.43545926 0.10742302 -0.40522832 -0.31185243 -0.1867317
-0.33048767 0.64993995 0.3576294 -0.056683637 0.4711828 -0.12982665 0.71451396 0.394372
0.42757407 0.64740473 0.67563283 0.3306074 -0.14518505 0.11289991 0.6316645 0.15249595
-0.21353993 -0.28578022 -0.5087636 0.71089214 -0.15727088 -0.21353786 -0.25092727 -0.24915917
-0.23376988 -0.11975869 -0.3578099 -0.10044098 -0.048347797 -0.0948865 -0.13018167 0.5151907
0.23594008 -0.45407742 0.59167504 -0.4767241 -0.3417594 -0.16002934 -0.019903358 -0.13230824
0.39705423 -0.2385163 0.3681054 -0.41654557 0.36380887 0.040449757 0.25800624 -0.26660118
-0.2762631 0.0060031656 0.21214005 -0.10014082 -0.1198185 -0.044324126 0.36575106 0.39494082
0.08748956 -0.019381018 -0.050290376 -0.18886405 0.9377395 0.456682 0.0756814 0.23680454
-0.053284764 0.31953356 -0.14082322 0.32728085 -0.18714465 -0.5052257 0.42228186 0.39530775
0.4865719 0.37864769 0.48839343 0.37062642 0.48121879 0.23463152 0.4586462 -0.080208056
0.17706572 -0.23443748 -0.3725269 -0.16441007 0.48116395 0.4082743 0.124249 0.6114943
-0.07874287 0.7377737 0.678587 0.117704205 0.18274872 0.3992785 0.3186296 -0.5236663
0.23240884 -0.6099955 0.28000718 -0.063884124 -0.059492245 0.3237288 -0.09883162 -0.26927438
0.08780195 0.5033645 0.48170725 0.36141586 0.24839976 0.09231002 -0.2079372 -0.3217221
0.21156886 -0.24212691 -0.7139127 -0.21741255 0.30564466 0.20852551 -0.19418919 0.13877568
0.4850663 0.40771452 -0.16423883 0.7887677 -0.40655816 0.38203824 0.46253514 -0.6217751
-0.2610579 -0.1793926 -0.43947965 -0.12348835 0.5243145 0.043436747 0.22161837 -0.073569
0.65860593 0.14733134 0.50072324 -0.59069043 -0.17705339 0.5241121 -0.23516113 0.48801306
0.58222806 0.38089785 0.01835342 0.27708408 -0.3865624 0.93284804 -0.18773934 0.5965867
-0.41512996 -0.03715306 -0.16744003 -0.2113281 0.7379075 -0.06954257 -0.42432833 -0.48987454
-0.054484162 -0.16207142 -0.27400294 -0.4326426 0.08386631 0.69716084 -0.073463954 0.9248657
-0.4720007 -0.13491914 0.3556227 -0.47899097 0.1792617 -0.3472289 -0.0906578 0.06744274
0.5994521 0.24148908 -0.47032884 -0.2863598 0.12907244 -0.59737617 -0.09151646 -0.1937724
-0.4753111 -0.2501802 0.057748724 -0.10005206 0.22009368 0.07476268 -0.105277054 -0.045725416
-0.06401754 -0.5950516 0.49812475 0.15872459 0.51447415 0.10731809 0.067858025 -0.16187036
-0.24213454 -0.102843665 0.60830945 -0.17847753 0.49005952 -0.47123557 -0.42011544 -0.14038685
0.48558733 -0.33287767 0.127235 -0.27621624 0.45124796 -0.32768452 0.03216217 -0.20647272

l1.bias f4 [8]
00000000: f000 dd3e bc6d 083f fafe 863f ad27 1f3f
00000010: 13ec 183f 9ae5 5a3e dfe4 c43e 39c6 6b3f
0.43164778 0.5329244 1.0546563 0.62169915 0.5973522 0.21376649 0.38455865 0.9209934

l2.weight f4 [8, 8]
00000000: 6454 61bf c4f7 63bf 1091 273f 04b8 8abd
00000010: 1028 00bd 2a22 983e e692 e93e 7d7d 963d
00000020: 71b6 04bf 2157 17bf f88a b33f e36b 883f
00000030: 8158 27bf da58 34bf 4115 4e3d d3cf a03f
00000040: 8a1c bf3f 32c8 943f c410 9c3e 98c8 03bf
00000050: 4e73 b63f c19b c3be 55b2 9cbd 56fa c93e
00000060: 41dc 72bf 1c96 203f 60c9 733f 217e 8bbf
00000070: 0692 bcbe e596 3e3e 2c41 723f e37b 483e
00000080: 7ed2 a6bc 8e6c 68bf 1a32 183e a8c8 c33f
00000090: 418f 993f 51c0 13bf 3f70 b03e 165b 4c3f
000000a0: 1fec 8e3e 7306 813d 1d30 573e b182 3ebe
000000b0: c304 a5be 510d 1dbe 9876 26be fd2d b2be
000000c0: 22ab 70be dc7c b1be fb47 083f db26 58bf
000000d0: 518d 093f 14f8 7f3e 2483 7b3f 92a5 953c
000000e0: 96d3 8f3f 9c2a 63bf c540 373f 8347 16bd
000000f0: a9c2 533c 8446 a93f f419 563f cdd0 1c3f
-0.88019395 -0.89049935 0.6545572 -0.067733794 -0.031288207 0.29713565 0.45619887 0.07348154
-0.51840883 -0.59117323 1.4026785 1.0657924 -0.6536942 -0.70448077 0.050313238 1.2563423
1.4930584 1.1623595 0.3048154 -0.51477957 1.4253938 -0.38204768 -0.07651202 0.39448804
-0.9486733 0.6272905 0.9522915 -1.0897866 -0.36830157 0.18612249 0.94630694 0.19578509
-0.020364042 -0.9079064 0.14862862 1.529561 1.1996843 -0.57715327 0.34460637 0.79826486
0.2791452 0.06300058 0.21014448 -0.18604542 -0.32230195 -0.15337111 -0.16256177 -0.3480071
-0.23502782 -0.34665573 0.53234833 -0.8443429 0.53731257 0.24996978 0.9824698 0.018267427
1.1236446 -0.8873689 0.71583205 -0.036689293 0.012924829 1.3224645 0.8363335 0.61256105

l2.bias f4 [8]
00000000: 226b 7fbe 3223 543f 79f7 d53e 16b6 f13e
00000010: c169 6a3d c0b8 41be 1dd5 87be 27ac b3be
-0.24943212 0.82866204 0.4179037 0.47209233 0.05722976 -0.18918133 -0.2652978 -0.3509228

l3.weight f4 [7, 8]
00000000: 05cd 73bf 6628 61bf 2518 13bf 3249 83bf
00000010: e255 50bf 0a3f 4a3d 2619 59bf 4d98 5e3f
00000020: 71be d8be 2c57 293f 8ec6 f5bf d1f8 33bf
00000030: 185d 6b3f b97f 86bd c021 30bf 8a9b cdbf
00000040: 087b e9bf ce1d 053f 18ec 5d3e d0a6 893f
00000050: 3c75 e3bf a48e 2dbe 8d98 c4be 7495 89bf
00000060: e7a6 74bf 7007 113f 4295 61be f28f 59bf
00000070: 9a95 273e 8fad 5f3e 929c 7fbf 49ab 233d
00000080: 1cc6 87bf 9ae1 53bf c262 f43b ccf8 483c
00000090: fc0c 113e be00 1d3d 9b24 0c3f 5d72 19be
000000a0: 4915 8d3f 1b55 d0bd 18bc bfbf ae51 d43e
000000b0: 62d4 36be 623f 463e 4da6 183f c654 f53d
000000c0: 8cc1 24bf bba9 97bf 796f 943f 7fff c0bd
000000d0: d7f5 a7be 63c6 95be 0ebf 98bf 7e01 bdbf
-0.9523471 -0.8795227 -0.57458717 -1.0256712 -0.81381047 0.049376525 -0.84804 0.8695114
-0.42332795 0.6614864 -1.9201219 -0.7030154 0.91938925 -0.0656733 -0.688015 -1.6063092
-1.8240671 0.51998603 0.21672094 1.0754032 -1.7770152 -0.16948944 -0.38397637 -1.0748734
-0.9556717 0.56651974 -0.22029594 -0.8498527 0.16365662 0.21843551 -0.9984828 0.039958272
-1.0607333 -0.82766116 0.007458062 0.012266349 0.1416511 0.038330786 0.54743356 -0.14985032
1.1022121 -0.101724826 -1.4979277 0.41468567 -0.17854455 0.19360116 0.59628755 0.1197906
-0.6435783 -1.1848673 1.1596519 -0.09423732 -0.32804748 -0.2925292 -1.1933305 -1.476608

l3.bias f4 [7]
00000000: e752 f63e b75a 693e 655f 9b3e 4d82 c4be
00000010: f8a7 d3be 3804 babe 1db5 3d3e
0.48110124 0.22788511 0.30346218 -0.38380662 -0.41339087 -0.36331344 0.1852612
